2021-10-20 02:33:12,444 INFO Running: ['.\\matchmaker\\train.py', '--run-name', 'msmarco_passage_TK2', '--config-file', '.\\config\\train\\defaults_TK2.yaml', '.\\config\\train\\msmarco.yaml']
2021-10-20 02:33:12,467 INFO Torch seed: 208973249 
2021-10-20 02:33:27,703 INFO Model TK total parameters: 191871923
2021-10-20 02:33:27,703 INFO Network: NeuralIR_Encoder(
  (word_embeddings): BasicTextFieldEmbedder(
    (token_embedder_tokens): Embedding()
  )
  (neural_ir_model): ECAI20_TK(
    (contextualizer): TransformerEncoder(
      (layers): ModuleList(
        (0): TransformerEncoderLayer(
          (self_attn): MultiheadAttention(
            (out_proj): NonDynamicallyQuantizableLinear(in_features=100, out_features=100, bias=True)
          )
          (linear1): Linear(in_features=100, out_features=100, bias=True)
          (dropout): Dropout(p=0, inplace=False)
          (linear2): Linear(in_features=100, out_features=100, bias=True)
          (norm1): LayerNorm((100,), eps=1e-05, elementwise_affine=True)
          (norm2): LayerNorm((100,), eps=1e-05, elementwise_affine=True)
          (dropout1): Dropout(p=0, inplace=False)
          (dropout2): Dropout(p=0, inplace=False)
        )
        (1): TransformerEncoderLayer(
          (self_attn): MultiheadAttention(
            (out_proj): NonDynamicallyQuantizableLinear(in_features=100, out_features=100, bias=True)
          )
          (linear1): Linear(in_features=100, out_features=100, bias=True)
          (dropout): Dropout(p=0, inplace=False)
          (linear2): Linear(in_features=100, out_features=100, bias=True)
          (norm1): LayerNorm((100,), eps=1e-05, elementwise_affine=True)
          (norm2): LayerNorm((100,), eps=1e-05, elementwise_affine=True)
          (dropout1): Dropout(p=0, inplace=False)
          (dropout2): Dropout(p=0, inplace=False)
        )
      )
    )
    (cosine_module): CosineMatrixAttention()
    (kernel_bin_weights): Linear(in_features=11, out_features=1, bias=False)
  )
)
2021-10-20 02:33:27,704 INFO we_params: word_embeddings.token_embedder_tokens.weight
2021-10-20 02:33:27,704 INFO params_group1: neural_ir_model.kernel_alpha_scaler
2021-10-20 02:33:27,704 INFO params_group1: neural_ir_model.kernel_bin_weights.weight
2021-10-20 02:33:29,661 INFO [Epoch 0] --- Start training 
2021-10-20 02:35:27,170 INFO [eval_model] --- Start validation from loader
…
